bot/data.pth (torch, 12247 bytes, 6 tensors)

l1.weight f4 [8, 159]
00000000: f507 c8be 114a 8c3d cf71 08bf c617 2fbf
00000010: c17a febb 5464 053f fa96 e83d 8661 843e
00000020: 6a8c 2e3e 87d9 cebe 4b98 5ebf 3a39 27be
00000030: c5e5 ffbe 98cc 013f ea30 813e 7585 42bd
00000040: b200 ed3e 7069 cd3e 1223 e73e 00f3 f03c
00000050: 555f 293c c3a0 9dbe 7ec0 bb3e c91f 283d
00000060: 529b 8f3e 27d9 153f 45d1 6dbe 0c52 b3be
00000070: 2ee9 9fbe 204a 72be 8e2d cf3e c90f bf3e
00000080: 6bd1 193f 7085 ce3e c4e5 dbbe 6ffc 113f
00000090: 162b 003f 2e9d 123f ed5c 1c3f 2a53 1cbf
000000a0: e9b7 893e acc0 9d3e 50fe 57bf e1dc 0ebf
000000b0: 82b6 ef3e 5d50 f93e 0730 11be 40ab df3e
000000c0: afdc e23e 6954 acbe 4f60 ab3e 6845 68bf
000000d0: 40eb 0bbf 2c11 b13e b521 6d3e 42af 423f
000000e0: cb67 573f 3e31 513e 543b 323f 7c72 7e3d
000000f0: 01d2 593f 343c a0be 1701 953f 3f8e 2f3d
00000100: b3d5 8fbe 0bfc 8d3e 9d32 e4bd b0fb 133e
00000110: 0713 773d c81d 933e 5af5 1d3d 9b75 aa3e
00000120: 5457 fb3e 6f3f 77be 8155 99be 5627 1f3f
00000130: 2da1 dd3e b766 273f eecd 933e 5955 893f
00000140: 00f9 debe ca4a 7abf 45d2 b4bc b6ca eabe
00000150: 30e4 14bf 33b2 4bbe 3bc2 01bf 8a7f 483e
00000160: b2ff 4cbe b001 c73e b43b c23b 4002 343f
00000170: 76d2 cc3e f83a ffbe b6a9 9fbe 1082 f63e
00000180: 2ca1 40be 1491 39bf 11b9 ba3c cb17 043f
00000190: fc56 083f 395c 563f bcb2 3bbf 5b17 c33e
000001a0: 8295 bb3e d8d4 40bd c3f8 053f d172 5b3f
000001b0: e697 04bf d8e6 793f f6a2 1e3f 2d5e 103f
000001c0: 7e09 ffbd 834c e53e 39e6 ec3e 4df1 903e
000001d0: d369 9c3d 1802 903e 92de 583f 4f98 083f
000001e0: 57b1 8d3e d387 0e3f 47f9 f03e 1e29 5fbf
000001f0: 91f6 e13e e681 5fbf bc83 1a3e 7247 41bf
00000200: 07c0 ffbe ebf1 e2bc 940c 153e 94d7 cc3e
00000210: ff81 87be ac91 b73e 6b44 223f 8ec7 633e
00000220: 738f 9a3e 8cb8 b6be 5710 b23e 73ea 4b3e
00000230: aeff 28bf f396 8c3c db61 babe a590 b53e
00000240: fcda 283e 8d7f b23f 14f4 aebd 92be 8ebe
00000250: ac9a 1b3e 5789 dfbe f4ca c2be 6276 23bf
00000260: 340b 58be b45f 3f3f 3dfa 013f ac37 e3be
00000270: 7c2c 463f 830a 82bd f142 693f c4b4 7e3f
00000280: 48cd 3abe 2329 23be d28a b73e 77ce 08bf
00000290: 67f9 b33e 9408 833c bef1 723e b3a5 3cbf
000002a0: c508 6d3f 607a 25bf f601 ddbd b1f2 cf3d
000002b0: 152b c63e bd7b 873e 7a80 29be 5d01 c93e
000002c0: 3239 a4bc 3abd 63be d806 bdbe ebb4 c9be
000002d0: 6e4c 413d d720 bebe be11 353f a8b0 9d3e
000002e0: 4ace 843d f47b b53d f2fa 4b3e f943 e23c
000002f0: 9e22 113f 6d79 3e3d 15a7 2d3f d6c3 853e
00000300: 40ad 013f e801 a9be bf91 d2be 8166 7c3c
00000310: 43fc 633d 4bdd e3be 90ba e03e 1bb3 f23d
00000320: 4e11 cebe 0330 9ebf 915c a2bd 4437 e6be
00000330: 56d1 edbe 3730 3bbe ec51 8dbe 785f b9be
00000340: e48b 423e 3331 b23e 866e 43bd 44c3 073e
00000350: 2954 273f 843c 913f 77cf ca3e 5808 57be
00000360: e135 a8be f803 0dbf c7cf bcbe ae9f 49be
00000370: 17dc 213c 57df 7bbf 908c f9bd bff5 823d
00000380: c078 543e cad9 d83e 386e 033f 75c1 a03e
00000390: a302 18be cd1b cdbe e65c 9fbe c8ae 773e
000003a0: 6c09 0c3f 17fd b93e 96fc 13bf 556d 1b3c
000003b0: 9235 37be 8fa3 593e b396 50bf f41e 13be
000003c0: 9510 1cbf c455 113f ac34 a33e c502 c63e
000003d0: 81be 1e3f 1b68 0d3e 299b 61be 9f4a 0b3e
000003e0: e033 ad3e 16e1 25be 6302 7bbf 030a bbbe
000003f0: 0be2 cf3e 4790 703d 28cf 3b3e 15df f63e
-0.3906857 0.068500645 -0.5329866 -0.6839565 -0.0077660982 0.52106214 0.113569215 0.25855654
0.17045751 -0.40400335 -0.8695113 -0.16330424 -0.49979988 0.5070281 0.2523263 -0.047490556
0.46289593 0.40119505 0.45143944 0.029412746 0.01033767 -0.30786714 0.36670297 0.041045938
0.28048187 0.58534473 -0.23224361 -0.35023534 -0.3123259 -0.23661089 0.40464443 0.3731673
0.6008517 0.4033618 -0.42948735 0.5702581 0.50065744 0.5727109 0.61079293 -0.610644
0.26898125 0.3081106 -0.84372425 -0.55805784 0.4681893 0.48694125 -0.14178477 0.4368534
0.44308993 -0.3365815 0.33471915 -0.90730906 -0.5465584 0.34583414 0.2315739 0.7604867
0.8414275 0.2042894 0.6962178 0.0621209 0.85086066 -0.3129593 1.1640958 0.042860266
-0.28092727 0.27731356 -0.11142466 0.1445148 0.06032088 0.2873366 0.038564064 0.3329285
0.49090064 -0.24145292 -0.29948047 0.62169397 0.4328703 0.65391105 0.2886805 1.0729171
-0.43549347 -0.9777037 -0.02207292 -0.4585778 -0.58160686 -0.19892196 -0.50687 0.19579902
-0.20019415 0.38868475 0.0059275273 0.70315933 0.4000432 -0.49849677 -0.31184167 0.48146105
-0.18811482 -0.72486997 0.022793325 0.51598805 0.5325773 0.8373447 -0.733196 0.38103756
0.36637503 -0.047077984 0.52332705 0.8572207 -0.5179428 0.97617865 0.6196741 0.563937
-0.12452982 0.44784936 0.46269396 0.28309098 0.07637372 0.28126597 0.84714615 0.53357404
0.27674362 0.55676 0.47065184 -0.87172115 0.44133428 -0.87307584 0.15089315 -0.7549964
-0.49951193 -0.027703246 0.1455558 0.40008223 -0.26466367 0.35853326 0.6338565 0.22244093
0.30187568 -0.35687673 0.3477809 0.19913654 -0.66015136 0.017161822 -0.36402783 0.35461918
0.16489786 1.3945175 -0.08542648 -0.2787977 0.15195721 -0.4365947 -0.38045466 -0.6385251
-0.21098024 0.74755406 0.5077246 -0.44378412 0.7741163 -0.06349661 0.9111777 0.99494576
-0.18242371 -0.15933661 0.358481 -0.5344004 0.35151216 0.015995301 0.2372503 -0.73690337
0.92591506 -0.64639854 -0.1079139 0.101537116 0.38704744 0.26461592 -0.16552916 0.39258853
-0.020046804 -0.22240153 -0.36919284 -0.39395842 0.04719203 -0.3713443 0.707302 0.3079884
0.06484659 0.08861533 0.19919947 0.027620303 0.56693447 0.04650252 0.6783307 0.26125973
0.50654984 -0.33009267 -0.4112682 0.015405298 0.055660497 -0.4450477 0.43892336 0.11850568
-0.40247577 -1.2358402 -0.07927812 -0.4496404 -0.46448773 -0.18280111 -0.27601564 -0.3620565
0.18998677 0.3480316 -0.047712825 0.13258082 0.65362793 1.1346593 0.39611408 -0.20999277
-0.32853606 -0.5508418 -0.36877272 -0.19689819 0.009879134 -0.98387665 -0.12185013 0.063945286
0.20749187 0.4235366 0.51340055 0.31397596 -0.14844756 -0.40060273 -0.31125563 0.24187768
0.54701877 0.36325905 -0.5780729 0.009486516 -0.17891529 0.21253799 -0.8147995 -0.14367276
-0.609628 0.5677149 0.31876123 0.38673988 0.62009436 0.13809244 -0.22031845 0.13602684
0.3382864 -0.16199145 -0.98050517 -0.36531076 0.40602145 0.058731344 0.18340743 0.48217073

l1.bias f4 [8]
00000000: f303 853f c115 8d3f 9813 8c3f a4d7 333f
00000010: 6490 ae3f 8427 443f 0580 7c3f 9176 633f
1.039183 1.1022264 1.094348 0.70250916 1.3637815 0.76622796 0.9863284 0.8885279

l2.weight f4 [8, 8]
00000000: dc82 d1bf 48bc 42bf e075 a73f e904 013e
00000010: b88f 823f a108 83bf 1dc1 8a3f dfc3 ff3f
00000020: 93f1 a83f 067f 76bf 2ccc 983d edcb 0e3e
00000030: a3d5 813f 7ed9 0ec0 d170 0cbe 75cd d73e
00000040: a690 583f 262f 93bf 78cc f4be c094 aebf
00000050: 8946 cd3f f97b ef3f a944 1e40 e5f1 653f
00000060: 565c 0d40 ba62 df3f 09b2 33be d133 efbd
00000070: 78cb 36bf 7196 933f 63ef 953e a971 ed3f
00000080: d2c6 26be 2c87 e33d 1bde 273c 9ce5 b0be
00000090: 1f67 46be 6082 333e dc17 c8bd 81aa b2be
000000a0: 4ee2 2bbf 5478 cc3f 2fbe 0940 2960 2240
000000b0: 50d7 0740 51f4 27bf 2e6a f0be f119 abbf
000000c0: 94c1 b23f bc73 45bf 6451 8c3f eefd 7bbf
000000d0: 2a6f de3f acc2 76be 25cb a63e 39ed 4abf
000000e0: 0c87 c23f e748 c5bf c4ce fc3f 2414 ae3f
000000f0: c3cd efbe c86f 0140 5bad 57bf 47f5 2d3f
-1.636806 -0.76068544 1.3082848 0.1259953 1.020011 -1.0237008 1.0840183 1.998165
1.3198723 -0.9628757 0.07460818 0.13944979 1.0143322 -2.2320247 -0.13714911 0.4214894
0.84595716 -1.1498764 -0.47812247 -1.3639145 1.6037151 1.8709708 2.4729407 0.89822227
2.2087607 1.7452004 -0.17548384 -0.11679805 -0.7140422 1.1530286 0.292842 1.8550311
-0.16286781 0.11109766 0.010245825 -0.34550178 -0.19375275 0.17530203 -0.09770176 -0.3489571
-0.6714219 1.5974221 2.152233 2.5371192 2.1225166 -0.6560717 -0.4695601 -1.3367292
1.3965325 -0.7712972 1.0962338 -0.9843434 1.7377675 -0.24097699 0.32576862 -0.79268223
1.5197463 -1.5412873 1.97506 1.3599896 -0.4683667 2.0224476 -0.84248894 0.6795239

l2.bias f4 [8]
00000000: fe16 493e bcf8 583e 8060 0a3f 407b 613f
00000010: 255e 92bd 7749 733f baf4 323f 85f3 a7be
0.19637677 0.21188635 0.540535 0.8807869 -0.07146863 0.95033973 0.69904673 -0.32802978

l3.weight f4 [24, 8]
00000000: 2179 03be 8c6f 3dc0 6b58 2fc0 133f 523b
00000010: 9c6d 843e be80 bf3e eb29 2fbf de40 bcbe
00000020: 3776 80bf bd87 03c0 6135 98bf c0cc 9bbf
00000030: e834 28bd 4894 9c3f 75f6 03c0 0c43 c2bf
00000040: bed5 38c0 ecad 80be 7e45 02c0 ac56 123e
00000050: 2384 2ebd 7027 363f 4c48 883e dea6 27c0
00000060: e23b e33e 156c 4fc0 86df 85be ba11 573d
00000070: e45b 88be 1387 56bf b871 cdbf c067 2bbe
00000080: 2f17 c23e 3c16 58bd 742e ef3e b044 34c0
00000090: 5d9a 083d c787 b13e f86f 333f de95 08c0
000000a0: 1fed d43e d454 8b3f 35c4 f9be 8ca6 01c0
000000b0: 05b1 943e 8616 523d 5bc7 7abe 7ed0 abbe
000000c0: e443 43bc 81ed 13bf ed87 e7bf 9745 03c0
000000d0: d58c aabd 2b29 363f bf3b 413f ea29 1cbf
000000e0: d63f c33e 6e90 e6bf 57a6 a4be 4205 d3bf
000000f0: d8d0 55be e71a 603e bc50 19bf fb67 3b3e
00000100: 9c60 a0bf a96b 43c0 a444 fd3b 6909 ec3e
00000110: 70c6 6a3e c62e 0cc0 76cf cdbf b6f7 193f
00000120: a91c 693f 95e3 39bf 8c4e e03e d614 b7bf
00000130: f845 103e 0255 0fbf 544f 5fbe db69 0bbf
00000140: acbd 05bf 9685 0b3f 9057 b83e 151e 44bf
00000150: 26f5 adbe 2d75 cfbe 0174 053f 10ad afbf
00000160: 4f73 2bc0 bf01 bbbf aeef b1be d0b6 f23e
00000170: 0a29 a03e 4259 86bf d9aa cd3e 21ec 303e
00000180: aea2 04c0 c14e 0ac0 c897 733f c8ce 633e
00000190: bf3a 5bbe dc7a 17c0 64c0 293d dbd7 cabe
000001a0: b65b a9bf 473e efbf f8ce ddbf c9b0 b63e
000001b0: 3ad3 623e e6a1 2ebf b9ec efbf fb4b 3e3f
000001c0: ec97 d2bf 06f3 11c0 d4ef 503f 3385 80bf
000001d0: 875d 08bd 5311 1ebe ec45 4c3f 3208 b5bc
000001e0: a21f 4bc0 7ac0 5fc0 510c 9cbf 6a84 16bf
000001f0: 1d6e 813d 7c1e 0d3f d706 073f 7652 0d3f
00000200: d05c 17bf fa38 ebbc e341 85be f10a 2abf
00000210: 780c 73be ac59 13bf eb9c 86be 8748 fe3e
00000220: a65d 163f eb65 02c0 928c 543f 9088 2a3e
00000230: 9627 2e3d 2b59 d2bf 3a0f cabe 6ad6 16c0
00000240: 4774 65bd f160 f5bf 03fd 053f 49ae f6be
00000250: c571 3cbc cfe7 10c0 03e0 fc3d dbd6 e73e
00000260: 4797 0ac0 0e9e 14c0 8c98 2c3f 3cc2 8b3f
00000270: 3d6d 283d 5443 20c0 f3fc 18c0 4e6c 0dc0
00000280: 8d7b 633e 8f68 dfbf 2e17 bdbe e4f8 e6be
00000290: 66b6 9bbe ee64 f93e 319d c3bf 1257 27c0
000002a0: 4736 b7bf 3269 7fbf 25a5 36be d1a7 3a3f
000002b0: 0ba3 89be 7010 553d de07 08c0 50a3 01c0
000002c0: f72c 2ec0 c38b f33e 1572 b63e a2a9 48bb
000002d0: 9aa7 2c3e 60f0 ddbf e493 2a3f 5722 24bf
000002e0: 9578 f3bf 5076 10c0 cba4 be3e eb32 b9be
000002f0: 2999 933e d043 43be 16b8 f3bf 1f5f 0f3f
-0.12839176 -2.9599333 -2.7397716 0.0032081052 0.25864875 0.3740291 -0.68423337 -0.3676824
-1.0036076 -2.0551598 -1.189129 -1.217186 -0.04106608 1.2232752 -2.0619175 -1.5176711
-2.8880458 -0.25132692 -2.0354915 0.14290875 -0.042606484 0.71153927 0.26617658 -2.6195598
0.44381624 -3.2409718 -0.26147097 0.05250714 -0.26632607 -0.83799857 -1.6050329 -0.16738796
0.37908313 -0.05275558 0.46715128 -2.8166924 0.033350337 0.34673902 0.70092726 -2.1341472
0.4158716 1.0885262 -0.48782507 -2.0257902 0.29041305 0.05129101 -0.2449011 -0.33557504
-0.011918042 -0.5778428 -1.8088356 -2.0511224 -0.08327643 0.7115657 0.7548179 -0.61001456
0.3813464 -1.8012826 -0.32158157 -1.648598 -0.20880449 0.21885262 -0.59888816 0.18301384
-1.2529483 -3.053446 0.00772913 0.4610093 0.2292726 -2.1903548 -1.6078937 0.601436
0.91059357 -0.7261289 0.43809927 -1.4303234 0.14089191 -0.55989087 -0.21807605 -0.544584
-0.5224254 0.5450071 0.36004305 -0.766084 -0.33976096 -0.40519086 0.5213013 -1.372469
-2.6789129 -1.4609908 -0.34753174 0.474051 0.3128131 -1.0495989 0.4016941 0.17277576
-2.0724292 -2.1610568 0.95153475 0.2224685 -0.21409129 -2.3668737 0.041443244 -0.3961781
-1.3231113 -1.869088 -1.7328787 0.3568175 0.22150889 -0.6821579 -1.8744117 0.74334687
-1.6452613 -2.280458 0.8161595 -1.0040649 -0.03329232 -0.15436296 0.7979419 -0.022098634
-3.1738057 -3.4961228 -1.2191259 -0.587958 0.063198306 0.5512464 0.5274481 0.5520395
-0.59125996 -0.028713692 -0.2602683 -0.66422945 -0.23735225 -0.57558703 -0.26291594 0.4966471
0.58736646 -2.0374706 0.83026993 0.16653657 0.04251822 -1.6433462 -0.39464742 -2.3568368
-0.056019094 -1.9170209 0.5233919 -0.48179844 -0.011501734 -2.2641485 0.12347414 0.4528111
-2.1654832 -2.322147 0.6742027 1.0918651 0.041119803 -2.5041094 -2.3904388 -2.2097354
0.222151 -1.7453784 -0.36931747 -0.45111763 -0.30412596 0.48709816 -1.5282346 -2.6146894
-1.4313439 -0.9976989 -0.17836435 0.7291232 -0.26882204 0.05201763 -2.1254802 -2.0255928
-2.7214944 0.47567567 0.35633913 -0.0030618687 0.1686081 -1.7338982 0.66631913 -0.641149
-1.9021174 -2.2572212 0.37235102 -0.3617166 0.2882779 -0.19068837 -1.9040554 0.5600452

l3.bias f4 [24]
00000000: 7a1e 7c3e dff0 a93e f628 c83e 74e5 bc3d
00000010: ba19 a03e a3d8 fbbe 1873 403e 88b3 12bf
00000020: b409 d3be aafa dcbe a95d babe 51fe cfbe
00000030: 3c1a 303d 9444 f3bd 4c0e 01be f6ca e43e
00000040: f5e8 17bf ad66 333f 38de 9dbd 3798 a93e
00000050: 888a 403d 933f 073f 3599 9bbe 2bbf b1bd
0.24621001 0.33191583 0.3909375 0.09223452 0.31269628 -0.49188718 0.18793905 -0.5730519
-0.4121834 -0.43159992 -0.36399582 -0.40623716 0.04299377 -0.118783146 -0.1260311 0.44686097
-0.5933984 0.70078546 -0.077084005 0.33123943 0.047007114 0.5283138 -0.30390325 -0.086790405
